nohup: ignoring input
]0;IPython: an/all_model_new703 1537 3174
(703, 1537, 3174)
67
3312
69 69
33
1680
71 72
68
34
24
703
325992
(96, 96)
read images in 29.771648168563843 sec
(325992, 96, 96)
read images in 59.27143692970276 sec
(325992, 1, 96, 96)
use model Unet
/home/anyu/myproject/venv/an/all_model_new/unet_96_48_900200_seed.model
unet_96_48_900200_seed
----------------------------------------------------------------
        Layer (type)               Output Shape         Param #
================================================================
            Conv2d-1           [-1, 32, 96, 96]             320
       BatchNorm2d-2           [-1, 32, 96, 96]              64
              ReLU-3           [-1, 32, 96, 96]               0
         Dropout2d-4           [-1, 32, 96, 96]               0
            Conv2d-5           [-1, 32, 96, 96]           9,248
       BatchNorm2d-6           [-1, 32, 96, 96]              64
              ReLU-7           [-1, 32, 96, 96]               0
         Dropout2d-8           [-1, 32, 96, 96]               0
       double_conv-9           [-1, 32, 96, 96]               0
        MaxPool2d-10           [-1, 32, 48, 48]               0
           Conv2d-11           [-1, 64, 48, 48]          18,496
      BatchNorm2d-12           [-1, 64, 48, 48]             128
             ReLU-13           [-1, 64, 48, 48]               0
        Dropout2d-14           [-1, 64, 48, 48]               0
           Conv2d-15           [-1, 64, 48, 48]          36,928
      BatchNorm2d-16           [-1, 64, 48, 48]             128
             ReLU-17           [-1, 64, 48, 48]               0
        Dropout2d-18           [-1, 64, 48, 48]               0
      double_conv-19           [-1, 64, 48, 48]               0
        MaxPool2d-20           [-1, 64, 24, 24]               0
           Conv2d-21          [-1, 128, 24, 24]          73,856
      BatchNorm2d-22          [-1, 128, 24, 24]             256
             ReLU-23          [-1, 128, 24, 24]               0
        Dropout2d-24          [-1, 128, 24, 24]               0
           Conv2d-25          [-1, 128, 24, 24]         147,584
      BatchNorm2d-26          [-1, 128, 24, 24]             256
             ReLU-27          [-1, 128, 24, 24]               0
        Dropout2d-28          [-1, 128, 24, 24]               0
      double_conv-29          [-1, 128, 24, 24]               0
        MaxPool2d-30          [-1, 128, 12, 12]               0
           Conv2d-31          [-1, 256, 14, 14]         295,168
      BatchNorm2d-32          [-1, 256, 14, 14]             512
             ReLU-33          [-1, 256, 14, 14]               0
        Dropout2d-34          [-1, 256, 14, 14]               0
           Conv2d-35          [-1, 256, 16, 16]         590,080
      BatchNorm2d-36          [-1, 256, 16, 16]             512
             ReLU-37          [-1, 256, 16, 16]               0
        Dropout2d-38          [-1, 256, 16, 16]               0
      double_conv-39          [-1, 256, 16, 16]               0
  ConvTranspose2d-40          [-1, 128, 32, 32]         131,200
           Conv2d-41          [-1, 128, 26, 26]         295,040
      BatchNorm2d-42          [-1, 128, 26, 26]             256
             ReLU-43          [-1, 128, 26, 26]               0
        Dropout2d-44          [-1, 128, 26, 26]               0
           Conv2d-45          [-1, 128, 28, 28]         147,584
      BatchNorm2d-46          [-1, 128, 28, 28]             256
             ReLU-47          [-1, 128, 28, 28]               0
        Dropout2d-48          [-1, 128, 28, 28]               0
      double_conv-49          [-1, 128, 28, 28]               0
  ConvTranspose2d-50           [-1, 64, 56, 56]          32,832
           Conv2d-51           [-1, 64, 50, 50]          73,792
      BatchNorm2d-52           [-1, 64, 50, 50]             128
             ReLU-53           [-1, 64, 50, 50]               0
        Dropout2d-54           [-1, 64, 50, 50]               0
           Conv2d-55           [-1, 64, 52, 52]          36,928
      BatchNorm2d-56           [-1, 64, 52, 52]             128
             ReLU-57           [-1, 64, 52, 52]               0
        Dropout2d-58           [-1, 64, 52, 52]               0
      double_conv-59           [-1, 64, 52, 52]               0
  ConvTranspose2d-60         [-1, 32, 104, 104]           8,224
           Conv2d-61           [-1, 32, 98, 98]          18,464
      BatchNorm2d-62           [-1, 32, 98, 98]              64
             ReLU-63           [-1, 32, 98, 98]               0
        Dropout2d-64           [-1, 32, 98, 98]               0
           Conv2d-65         [-1, 32, 100, 100]           9,248
      BatchNorm2d-66         [-1, 32, 100, 100]              64
             ReLU-67         [-1, 32, 100, 100]               0
        Dropout2d-68         [-1, 32, 100, 100]               0
      double_conv-69         [-1, 32, 100, 100]               0
           Conv2d-70          [-1, 1, 100, 100]              33
================================================================
Total params: 1,927,841
Trainable params: 1,927,841
Non-trainable params: 0
----------------------------------------------------------------
Input size (MB): 0.04
Forward/backward pass size (MB): 85.24
Params size (MB): 7.35
Estimated Total Size (MB): 92.63
----------------------------------------------------------------
save
save in 394.70217633247375 sec
…
