nohup: ignoring input
]0;IPython: an/all_model_newload in 46.74440360069275 sec
(1100, 1537, 3174) (1100, 1537, 3174)
1.0 0.0 True False
276
use model RCF
----------------------------------------------------------------
        Layer (type)               Output Shape         Param #
================================================================
            Conv2d-1           [-1, 32, 96, 96]             320
              ReLU-2           [-1, 32, 96, 96]               0
         Dropout2d-3           [-1, 32, 96, 96]               0
            Conv2d-4           [-1, 32, 96, 96]           9,248
              ReLU-5           [-1, 32, 96, 96]               0
         Dropout2d-6           [-1, 32, 96, 96]               0
         MaxPool2d-7           [-1, 32, 48, 48]               0
            Conv2d-8           [-1, 64, 48, 48]          18,496
              ReLU-9           [-1, 64, 48, 48]               0
        Dropout2d-10           [-1, 64, 48, 48]               0
           Conv2d-11           [-1, 64, 48, 48]          36,928
             ReLU-12           [-1, 64, 48, 48]               0
        Dropout2d-13           [-1, 64, 48, 48]               0
        MaxPool2d-14           [-1, 64, 24, 24]               0
           Conv2d-15          [-1, 128, 24, 24]          73,856
             ReLU-16          [-1, 128, 24, 24]               0
        Dropout2d-17          [-1, 128, 24, 24]               0
           Conv2d-18          [-1, 128, 24, 24]         147,584
             ReLU-19          [-1, 128, 24, 24]               0
        Dropout2d-20          [-1, 128, 24, 24]               0
           Conv2d-21          [-1, 128, 24, 24]         147,584
             ReLU-22          [-1, 128, 24, 24]               0
        Dropout2d-23          [-1, 128, 24, 24]               0
        MaxPool2d-24          [-1, 128, 12, 12]               0
           Conv2d-25          [-1, 256, 12, 12]         295,168
             ReLU-26          [-1, 256, 12, 12]               0
        Dropout2d-27          [-1, 256, 12, 12]               0
           Conv2d-28          [-1, 256, 12, 12]         590,080
             ReLU-29          [-1, 256, 12, 12]               0
        Dropout2d-30          [-1, 256, 12, 12]               0
           Conv2d-31          [-1, 256, 12, 12]         590,080
             ReLU-32          [-1, 256, 12, 12]               0
        Dropout2d-33          [-1, 256, 12, 12]               0
        MaxPool2d-34          [-1, 256, 11, 11]               0
           Conv2d-35          [-1, 256, 11, 11]         590,080
             ReLU-36          [-1, 256, 11, 11]               0
        Dropout2d-37          [-1, 256, 11, 11]               0
           Conv2d-38          [-1, 256, 11, 11]         590,080
             ReLU-39          [-1, 256, 11, 11]               0
        Dropout2d-40          [-1, 256, 11, 11]               0
           Conv2d-41          [-1, 256, 11, 11]         590,080
             ReLU-42          [-1, 256, 11, 11]               0
        Dropout2d-43          [-1, 256, 11, 11]               0
           Conv2d-44           [-1, 21, 96, 96]             693
           Conv2d-45           [-1, 21, 96, 96]             693
           Conv2d-46           [-1, 21, 48, 48]           1,365
           Conv2d-47           [-1, 21, 48, 48]           1,365
           Conv2d-48           [-1, 21, 24, 24]           2,709
           Conv2d-49           [-1, 21, 24, 24]           2,709
           Conv2d-50           [-1, 21, 24, 24]           2,709
           Conv2d-51           [-1, 21, 12, 12]           5,397
           Conv2d-52           [-1, 21, 12, 12]           5,397
           Conv2d-53           [-1, 21, 12, 12]           5,397
           Conv2d-54           [-1, 21, 11, 11]           5,397
           Conv2d-55           [-1, 21, 11, 11]           5,397
           Conv2d-56           [-1, 21, 11, 11]           5,397
           Conv2d-57            [-1, 1, 96, 96]              22
           Conv2d-58            [-1, 1, 48, 48]              22
           Conv2d-59            [-1, 1, 24, 24]              22
           Conv2d-60            [-1, 1, 12, 12]              22
           Conv2d-61            [-1, 1, 11, 11]              22
           Conv2d-62            [-1, 1, 96, 96]               6
================================================================
Total params: 3,724,325
Trainable params: 3,724,325
Non-trainable params: 0
----------------------------------------------------------------
Input size (MB): 0.04
Forward/backward pass size (MB): 35.45
Params size (MB): 14.21
Estimated Total Size (MB): 49.69
----------------------------------------------------------------
horizontal_splits_number 66
…
